checkpoint.pth (torch_old, 10598 bytes, 6 tensors)

fc1.weight f4 [32, 37]
-0.0552141 0.15732467 -0.04254167 -0.060145915 0.13316226 0.22876428 -0.027162 0.02451805
-0.044146203 -0.6612566 0.036623597 -0.0065502934 -0.0838849 -0.03803028 0.021672374 0.08130864
0.05069084 0.07301666 0.083925374 -0.10468269 0.0930959 0.19315332 0.018433917 0.15721846
0.22281021 0.15342058 0.11301794 -0.07768679 0.019717036 -0.041517735 -0.035315823 0.1820585
-0.046720177 0.14669628 0.123705305 -0.04130827 -0.022877911 0.19187275 -0.107692175 0.09295359
0.046721324 -0.126287 0.23760438 -0.26502603 -0.3175938 -0.19228949 -0.14125533 0.032607555
-0.04752373 -0.0056307116 0.011105464 -0.021195423 0.07477249 -0.112365395 0.0013772018 0.13485847
0.20012556 -0.1339018 -0.30171257 -0.02737161 0.10021606 0.35921586 -0.10621576 -0.0994166
0.12773645 0.17237489 0.30455783 0.0052495142 0.14530583 0.043185476 0.24685849 0.3583383
0.074080825 0.058461882 0.21776062 0.10289183 0.012644529 0.08938812 -0.16034223 -0.53429574
0.05733689 0.29941842 0.3183033 -0.2497415 0.006786915 0.008319445 0.028550519 0.0040055737
0.119066164 -0.08208424 0.15936568 0.103236645 0.16867381 0.10563034 -0.08622142 0.0202769
0.036833696 0.04338136 -0.13594322 -0.037954915 0.16831814 0.13364573 -0.0015519904 -0.15797603
-0.17920904 0.16478756 -0.06746941 -0.25420097 -0.1578284 0.01674054 0.01944194 0.11560898
0.099122524 0.0552506 0.019254617 -0.17276509 -0.09182515 -0.009365743 0.03485596 0.21919605
0.29044625 0.099975765 0.022936532 -0.08216692 -0.17598207 -0.5297377 -0.09267363 -0.033760265
-0.01755865 -0.16161703 0.0133337425 0.2732259 -0.50032085 -0.26211536 -0.117592394 -0.99859303
0.026351213 -0.016878923 0.063623436 0.050950527 0.055931732 0.025548995 0.24855152 0.034442894
-0.1792871 -0.27160397 -0.014734791 -0.003485866 -0.16948791 -0.16041024 0.017412072 -0.06838583
0.016838232 -0.011771523 0.037822176 0.15112644 -0.023205 -0.23145287 0.05181519 -0.035528425
0.022020042 0.016592838 -0.1022497 -0.11340456 0.042224623 0.07205063 -0.16865966 -0.17634402
0.08198957 0.06661688 0.032835953 -0.051734954 -0.19249524 0.17582634 -0.1324545 0.15626495
-0.34288687 -0.65570414 0.10803816 -0.24320827 0.19088927 -0.10527353 -0.13153775 0.0061253244
0.029316133 0.012565169 -0.14971717 0.060984462 -0.11370767 -0.106560394 -0.009635706 0.0053897467
0.06381507 -0.10024942 -0.65920216 -0.20276056 -0.0147429425 0.08303997 0.023455529 0.05603396
-0.10494408 -0.024812603 0.1620188 -0.09586048 -0.056087393 -0.23084506 0.18690106 0.31312725
0.03746747 -0.34976876 -0.112687096 -0.017019022 0.18281278 -0.1839096 -0.033697054 -0.2444829
0.030805826 0.13983485 -0.1272448 -0.45224825 -0.044729173 0.082490906 0.049906127 -0.026817203
-0.07126651 -0.112783 0.009613673 0.051891748 -0.017347675 -0.05448825 -0.045321442 0.01053133
-0.02812054 0.12183617 0.23243354 0.14845334 0.10624754 0.01921104 -0.11566612 0.0029674545
0.01942568 0.21423979 -0.085493304 0.090638265 0.0958869 -0.013928698 0.112575114 -0.07473479
0.00047171782 -0.0821156 0.007694234 0.10317393 0.2874866 -0.116190106 -0.14787579 -0.17533697
00000000: 2e28 62bd b819 213e 2d40 2ebd 905b 76bd
00000010: b05b 083e 2f41 6a3e d882 debc 14da c83c
00000020: a6d2 34bd 1d48 29bf a002 163d d8a3 d6bb
00000030: d9cb abbd a4c5 1bbd 438a b13c 2585 a63d
00000040: 33a1 4f3d c289 953d 11e1 ab3d e163 d6bd
00000050: 10a9 be3d fcc9 453e ba02 973c e0fd 203e
00000060: 5c28 643e 491a 1d3e f375 e73d 401a 9fbd
00000070: 9f85 a13c 800e 2abd 53a7 10bd 8b6d 3a3e
00000080: a85d 3fbd 8d37 163e 3559 fd3d dc32 29bd
00000090: 756a bbbc 4a7a 443e b78d dcbd 745e be3d
000000a0: dc5e 3f3d 6151 01be 904e 733e 7eb1 87be
000000b0: a89b a2be 89e7 44be 3da5 10be 808f 053d
000000c0: 3ea8 42bd d581 b8bb b1f3 353c 06a2 adbc
000000d0: 5222 993d d41f e6bd 3983 b43a 5718 0a3e
000000e0: b7ed 4c3e 8e1d 09be 127a 9abe 6d3a e0bc
000000f0: 143e cd3d 24eb b73e a687 d9bd ee9a cbbd
00000100: 58cd 023e 0b83 303e 01ef 9b3e 1e04 ac3b
00000110: 0dcb 143e 41e3 303d 79c8 7c3e 1e78 b73e
00000120: b0b7 973d ba75 6f3d a4fc 5e3e f4b8 d23d
00000130: 002b 4f3c 1e11 b73d c130 24be 9bc7 08bf
00000140: 16da 6a3d 5f4d 993e a6f8 a23e 3cbc 7fbe
00000150: c564 de3b 484e 083c c7e2 e93c 3041 833b
00000160: f6d8 f33d c81b a8bd c230 233e bc6d d33d
00000170: d4b8 2c3e b854 d83d db94 b0bd be1b a63c
00000180: eede 163d a7b0 313d b334 0bbe 9d76 1bbd
00000190: 975b 2c3e 6dda 083e 286c cbba 78c4 21be
000001a0: 9382 37be 12be 283e 672d 8abd a126 82be
000001b0: c59d 21be 7523 893c b444 9f3c 67c4 ec3d
000001c0: c000 cb3d 744e 623d dcbb 9d3c 55e9 30be
000001d0: d30e bcbd c672 19bc 20c5 0e3d ee74 603e
000001e0: 5fb5 943e 18c0 cc3d 65e5 bb3c 2147 a8bd
000001f0: a534 34be e49c 07bf accb bdbd 3448 0abd
00000200: 28d7 8fbc ef7e 25be c575 5a3c 44e4 8b3e
00000210: 0715 00bf fc33 86be 48d4 f0bd cba3 7fbf
00000220: 80de d73c ab45 8abc 014d 823d 80b1 503d
00000230: ac18 653d 204c d13c 4a84 7e3e fe13 0d3d
00000240: 0a97 37be ad0f 8bbe 316a 71bc 2073 64bb
00000250: 3d8e 2dbe 9542 24be c3a3 8e3c df0d 8cbd
00000260: 55f0 893c 59dd 40bc 6deb 1a3d e4c0 1a3e
00000270: 6a18 bebc fb01 6dbe 2a3c 543d 4186 11bd
00000280: 6063 b43c b4ed 873c 4a68 d1bd a640 e8bd
00000290: baf3 2c3d 488f 933d 1eb5 2cbe 8793 34be
000002a0: 26ea a73d 6e6e 883d fe7e 063d 08e8 53bd
000002b0: 791d 45be d20b 343e 27a2 07be eb03 203e
000002c0: de8e afbe 3adc 27bf 1c43 dd3d 970b 79be
000002d0: 7a78 433e a699 d7bd d5b1 06be f2b6 c83b
000002e0: 6328 f03c 23de 4d3c 754f 19be d8ca 793d
000002f0: 91df e8bd 563c dabd 15df 1dbc 799c b03b
00000300: 7ab1 823d 914f cdbd 79c1 28bf 77a0 4fbe
00000310: 628c 71bc dc10 aa3d cf25 c03c de83 653d
00000320: ecec d6bd cd43 cbbc 42e8 253e 8052 c4bd
00000330: e5bb 65bd a662 6cbe fe62 3f3e 3752 a03e
00000340: 7d77 193d e414 b3be 7ec8 e6bd 7a6b 8bbc
00000350: 4633 3b3e cc52 3cbe ec05 0abd ba59 7abe
00000360: 805c fc3c de30 0f3e 764c 02be 158d e7be
00000370: f035 37bd fef0 a83d 5e6a 4c3d c0af dbbc
00000380: 2df4 91bd c6fa e6bd ab82 1d3c 718c 543d
00000390: b61c 8ebc 122f 5fbd faa2 39bd 998b 2c3c
000003a0: 0c5d e6bc 3e85 f93d 0f03 6e3e 2704 183e
000003b0: 4f98 d93d 7960 9d3c 5ce2 ecbd a079 423b
000003c0: 9b22 9f3c ad61 5b3e 1d17 afbd 8ea0 b93d
000003d0: 5a60 c43d 3235 64bc c88d e63d 8e0e 99bd
000003e0: e550 f739 392c a8bd ea1f fc3b da4c d33d
000003f0: 7231 933e 14f5 edbd c06c 17be 898b 33be

fc1.bias f4 [32]
-0.032648493 -0.18274291 0.010674621 0.14242753 0.21176937 -0.11317404 -0.007801299 0.16659644
0.12873182 0.18726769 -0.03391738 -0.01721208 0.067689575 -0.044324514 0.069152765 -0.075422816
0.03137249 0.16421536 0.18664669 -0.14597936 -0.18095306 -0.09149225 -0.14845382 0.18701333
0.056482285 -0.1238396 -0.009945151 -0.053148694 0.16251376 -0.15302843 -0.079838835 -0.097077735
00000000: 6dba 05bd f520 3bbe 9be4 2e3c 86d8 113e
00000010: 12da 583e cbc7 e7bd 0aa2 ffbb 4298 2a3e
00000020: 46d2 033e 1ac3 3f3e f3ec 0abd 5900 8dbc
00000030: d5a0 8a3d 9f8d 35bd f79f 8d3d 4777 9abd
00000040: 7180 003d 1228 283e 4f20 3f3e 9d7b 15be
00000050: c24b 39be 4a60 bbbd 4704 18be 6c80 3f3e
00000060: f859 673d 9e9f fdbd fdf0 22bc 72b2 59bd
00000070: 026a 263e 7cb3 1cbe 8b82 a3bd b1d0 c6bd

fc2.weight f4 [32, 32]
-0.05622663 -0.19298245 -0.07212974 0.10939728 0.15777326 0.094306685 -0.16969094 -0.07098243
-0.039772082 0.10358057 -0.0791773 0.23350772 0.05109154 -0.5245667 0.08382176 -0.11681715
-0.22346292 -0.22385237 0.07125177 -0.024892835 -0.077690065 0.025171435 -0.0053993077 -0.1441886
-0.4305787 -0.020364676 0.10363592 -0.30074847 -0.21800826 -0.29747823 -0.060498707 -0.23284678
0.1177596 -0.055555172 0.06260475 0.3186373 0.13556734 -0.133503 0.22459482 0.08910596
0.11217471 -0.08280052 0.11850046 0.12745008 -0.06611026 0.07796469 0.002627789 -0.13117953
-0.033855468 0.09549578 0.051764842 0.077247396 0.077884905 0.17990774 -0.13163191 0.16108488
-0.3650634 -0.12959832 -0.16911271 0.0601083 0.1317694 0.12445975 0.008314531 0.11302555
0.020981163 -0.054554936 0.1806108 0.35618216 0.16764992 -0.05956537 -0.45471454 0.24376668
0.06873423 -0.17353103 0.14197324 0.12835962 -0.18253586 0.10175928 -0.28960985 -0.023657551
0.088291846 -0.068805456 0.21932548 -0.10780346 -0.041964546 -0.04143509 -0.09569595 0.19180569
0.22711055 -0.0051304605 -0.09315816 -0.34037146 -0.2214996 -0.07515528 0.35193667 -0.05753846
0.12900643 -0.12559679 0.119637616 -0.085229784 -0.11852727 -0.10248482 0.13990688 0.14851238
-0.09811335 0.008190772 0.015985124 -0.13759373 -0.003402112 0.13138333 -0.1966566 0.047558334
0.06219529 -0.118775785 -0.0087843165 0.030166246 0.06593748 0.23399721 0.019823974 0.12525107
0.13255188 -0.035170253 -0.051696666 0.03556579 -0.075497985 -0.11555869 0.011244291 0.17075008
0.011109767 -0.015034484 0.27548742 0.103584565 -0.07512704 0.094605386 -0.003432768 0.037747778
-0.025230994 0.2014777 -0.018050725 0.09771351 -0.060132075 -0.14416921 0.039629873 0.053133465
0.13150264 0.15425535 -0.055733226 0.15146226 0.07155998 0.05895007 0.07246518 0.043452166
-0.5973122 0.13561307 0.21264197 0.19738235 -0.10661744 0.15203537 -0.20399661 0.024638413
0.124898694 0.03428914 0.1414839 -0.18065736 0.121729985 -0.09692283 -0.022632116 -0.12632504
0.109654 0.16272664 0.005808986 -0.11211746 -0.056627102 -0.015786586 -0.053495713 0.055379923
0.06067101 0.08548804 0.102118 -0.27114475 -0.038873963 -0.070319206 0.011444603 0.102270514
-0.21517187 -0.0042162375 -0.2611897 -0.3344769 0.049577326 0.033812623 0.44909114 -0.06549746
0.06770774 -0.034092158 -0.20595567 -0.10054306 0.24101935 0.29336977 0.030360086 -0.03959746
0.1254659 -0.34122846 -0.0071760803 0.0750916 0.15379289 -0.2960138 0.05320518 -0.082385615
-0.18056175 0.015407108 0.096287705 0.15316452 -0.029246543 -0.003833961 0.040804897 0.16855347
0.12619032 -0.2426814 0.029151853 -0.11080625 0.0118459845 -0.36136806 0.034674566 0.103925414
0.10676843 -0.0040869894 0.022215866 0.090844445 0.053015713 0.03432539 0.08466157 -0.059965737
0.016390841 -0.079148374 0.15196209 0.22219808 0.20886299 0.1605923 0.18965723 -0.25484383
0.009593931 -0.045340493 0.008694021 0.2113298 -0.03151895 0.08509359 -0.07332935 -0.07087013
0.10605007 -0.21464881 0.20025766 0.33255586 0.23265216 -0.009968254 -0.2925254 0.19650806
00000000: e54d 66bd 319d 45be c2b8 93bd ae0b e03d
00000010: 508f 213e dd23 c13d 76c3 2dbe 3c5f 91bd
00000020: 0de8 22bd 0d22 d43d b527 a2bd a61c 6f3e
00000030: 5d45 513d 014a 06bf beaa ab3d d43d efbd
00000040: 77d3 64be 8e39 65be 73ec 913d 0fec cbbc
00000050: f81b 9fbd 5334 ce3c adec b0bb 2da6 13be
00000060: d074 dcbe d2d3 a6bc 123f d43d b4fb 99be
00000070: 8f3d 5fbe 114f 98be 7ecd 77bd 636f 6ebe
00000080: f22b f13d d28d 63bd eb36 803d 6e24 a33e
00000090: 2ad2 0a3e 03b5 08be 2ffc 653e 307d b63d
000000a0: dbbb e53d 5293 a9bd 5fb0 f23d 4682 023e
000000b0: d164 87bd f4ab 9f3d fc36 2c3b ed53 06be
000000c0: 08ac 0abd 4b93 c33d 5f07 543d e233 9e3d
000000d0: 1f82 9f3d bc39 383e 84ca 06be 6ff3 243e
000000e0: 97e9 babe 6cb5 04be e22b 2dbe 1f34 763d
000000f0: 8fee 063e c1e4 fe3d ac39 083c f179 e73d
00000100: b0e0 ab3c ff74 5fbd 0af2 383e 825d b63e
00000110: 6cac 2b3e d1fa 73bd 58d0 e8be f99d 793e
00000120: 88c4 8c3d 1eb2 31be 6f61 113e b470 033e
00000130: aeea 3abe 2b67 d03d be47 94be 7bcd c1bc
00000140: 5bd2 b43d e0e9 8cbd dc96 603e 0fc8 dcbd
00000150: 04e3 2bbd d7b7 29bd 3dfc c3bd b668 443e
00000160: ab8f 683e 6c1d a8bb b5c9 bebd 2b45 aebe
00000170: cbd0 62be 03eb 99bd 0b31 b43e 73ad 6bbd
00000180: 431a 043e 729c 00be 9104 f53d f48c aebd
00000190: 6dbe f2bd 90e3 d1bd c043 0f3e a113 183e
000001a0: a7ef c8bd 9632 063c 3cf3 823c 5fe5 0cbe
000001b0: f8f5 5ebb 5a89 063e 5960 49be 87cc 423d
000001c0: 7dc0 7e3d b840 f3bd 18ec 0fbc 341f f73c
000001d0: 3b0a 873d f79c 6f3e e365 a23c d141 003e
000001e0: aebb 073e af0e 10bd e2bf 53bd 6fad 113d
000001f0: b09e 9abd 09aa ecbd fa39 383c 1cd9 2e3e
00000200: bd05 363c 3253 76bc b00c 8d3e 2524 d43d
00000210: 35dc 99bd 78c0 c13d 4af8 60bb 6a9d 1a3d
00000220: 3bb1 cebc 2c50 4e3e 1ddf 93bc 051e c83d
00000230: 0d4d 76bd 18a1 13be ef52 223d 7aa2 593d
00000240: a1a8 063e 1df5 1d3e 8648 64bd ec18 1b3e
00000250: 0a8e 923d a175 713d a068 943d e6fa 313d
00000260: 74e9 18bf 27de 0a3e d1be 593e 991e 4a3e
00000270: 3f5a dabd 29af 1b3e 7de4 50be 7fd6 c93c
00000280: e3ca ff3d c572 0c3d 28e1 103e 3efe 38be
00000290: 924d f93d 7a7f c6bd fd66 b9bc 5a5b 01be
000002a0: 4792 e03d d0a1 263e 4e59 be3b d79d e5bd
000002b0: d2f1 67bd df52 81bc 521e 5bbd 0fd6 623d
000002c0: 2a82 783d 5a14 af3d 3e23 d13d 7cd3 8abe
000002d0: 4e3a 1fbd 8403 90bd 2582 3b3c 3473 d13d
000002e0: 0456 5cbe 5d28 8abb a8ba 85be 8e40 abbe
000002f0: 9811 4b3d 1b7f 0a3d 46ef e53e 8823 86bd
00000300: 5baa 8a3d 38a4 0bbd 0be6 52be 85e9 cdbd
00000310: c7cd 763e 9034 963e b7b5 f83c f230 22bd
00000320: 227a 003e 7fb5 aebe 5325 ebbb a0c9 993d
00000330: e27b 1d3e 1f8f 97be aded 593d cab9 a8bd
00000340: 2ee5 38be 186e 7c3c 7d32 c53d 29d7 1c3e
00000350: 7296 efbc 3143 7bbb 0923 273d 4899 2c3e
00000360: 0938 013e 7981 78be decf ee3c 63ee e2bd
00000370: a915 423c 3c05 b9be eb06 0e3d d9d6 d43d
00000380: 68a9 da3d 27ec 85bb 0cfe b53c a70c ba3d
00000390: 0127 593d c898 0c3d 0c63 ad3d a29e 75bd
000003a0: 1646 863c 8b18 a2bd f39b 1b3e e587 633e
000003b0: 2ee0 553e 4f72 243e 8135 423e e47a 82be
000003c0: dd2f 1d3c f4b6 39bd 5e71 0e3c d766 583e
000003d0: 041a 01bd 8c45 ae3d b32d 96bd 5c24 91bd
000003e0: c730 d93d e6cc 5bbe 5810 4d3e c344 aa3e
000003f0: 5e3c 6e3e e351 23bc e4c5 95be 6939 493e

fc2.bias f4 [32]
-0.025268946 -0.1224243 -0.12595467 -0.1589143 0.12225722 0.105890825 -0.104557924 0.17254277
-0.062610984 -0.09781189 0.088001795 0.14413938 0.3185659 0.18128718 -0.06353923 0.1465102
0.08611454 -0.080311485 0.0189612 0.112348296 0.013774213 -0.111658156 0.24516933 0.1154205
-0.015914464 -0.086467676 0.18409047 0.06825714 -0.07933871 -0.07239842 0.07936052 0.1080363
00000000: d200 cfbc 97b9 fabd 43fa 00be 6eba 22be
00000010: fe61 fa3d 4add d83d 7722 d6bd 0daf 303e
00000020: 303a 80bd 9a51 c8bd 493a b43d 4699 133e
00000030: 121b a33e 59a3 393e db20 82bd c506 163e
00000040: d25c b03d 597a a4bd 8554 9b3c dd16 e63d
00000050: 3dad 613c 08ad e4bd ab0d 7b3e 9561 ec3d
00000060: 0d5f 82bc f715 b1bd 3682 3c3e 66ca 8b3d
00000070: 557c a2bd 9f45 94bd c587 a23d 2342 dd3d

fc3.weight f4 [4, 32]
0.04390393 0.07063936 -0.06426481 0.15537329 -0.012633263 -0.16328374 0.07865895 0.14440207
0.077178404 0.1480149 0.1255538 0.1463789 0.1858878 -0.4356378 -0.10461518 0.01201693
-0.39976662 0.10279807 0.13768317 0.19778678 0.45471063 0.3036007 0.16132449 0.28480762
0.04859703 0.107709266 0.16320132 -0.02458093 0.16787818 -0.23091921 -0.10014792 0.2359727
-0.313656 -0.10388831 0.18390787 -0.1183908 0.12759554 -0.0054386486 -0.01920864 0.19436778
-0.012538745 0.20254578 0.15510598 0.22466889 0.16062148 -0.02819801 -0.13542701 0.03695865
-0.16956194 0.31717962 0.17526782 0.13730223 0.24386267 0.31761137 0.120877855 0.3041779
-0.01226551 0.130785 0.11787861 -0.032418717 -0.03640448 -0.09444433 -0.23155247 0.23495974
0.022626331 0.19991861 -0.20783775 -0.1013962 0.06730926 0.015768267 0.16202366 0.22254983
0.039370496 0.5521619 0.15028368 -0.14315651 0.20046142 -0.10306551 -0.033933844 0.19569524
0.05082139 -0.22308104 0.09315753 0.24370109 0.17971565 0.123127185 0.15289275 0.26218498
-0.08728228 0.09507671 0.21174441 -0.2983831 -0.026358334 -0.087013535 0.014609504 0.05784028
0.18982728 -0.031894997 -0.22893746 -0.11363977 0.22538994 -0.074030496 -0.1254162 0.14740641
0.06865878 0.041882273 0.068690926 0.49349105 0.20872112 -0.026574858 -0.1929546 0.028292397
0.08690283 -0.18597093 0.084578425 -0.18061805 0.033184852 0.49672055 0.053726308 0.36150882
-0.17104109 0.19458117 0.0390844 -0.103417926 0.09967265 0.01963371 -0.33297434 0.0806509
00000000: 9bd4 333d 5eab 903d 459d 83bd 2d1a 1f3e
00000010: bffb 4ebc da33 27be f217 a13d 23de 133e
00000020: b60f 9e3d 3891 173e 2d91 003e 5ae4 153e
00000030: 5f59 3e3e eb0b dfbe 7c40 d6bd a8e2 443c
00000040: 36ae ccbe cb87 d23d d1fc 0c3e 9e88 4a3e
00000050: d5cf e83e 8d71 9b3e 3f32 253e 4ed2 913e
00000060: ae0d 473d ad96 dc3d 3f1e 273e f25d c9bc
00000070: 42e8 2b3e 1676 6cbe 5a1a cdbd d4a2 713e
00000080: 8597 a0be 65c3 d4bd 5852 3c3e e076 f2bd
00000090: 68a8 023e b136 b2bb 705b 9dbc 5908 473e
000000a0: 4f6f 4dbc 2968 4f3e 1ad4 1e3e 9a0f 663e
000000b0: f579 243e 83ff e6bc 61ad 0abe f461 173d
000000c0: a5a1 2dbe 5e65 a23e 6879 333e f598 0c3e
000000d0: 23b7 793e f59d a23e cf8e f73d 35bd 9b3e
000000e0: 47f5 48bc 81ec 053e 576a f13d 7dc9 04bd
000000f0: dd1c 15bd 076c c1bd 171c 6dbe 4999 703e
00000100: db5a b93c 77b7 4c3e 6bd3 54be d0a8 cfbd
00000110: 70d9 893d 742c 813c 88e9 253e 1ae4 633e
00000120: f542 213d 7b5a 0d3f f7e3 193e 9f97 12be
00000130: c245 4d3e 0314 d3bd 37fe 0abd 5564 483e
00000140: 172a 503d 5b6f 64be 60c9 be3d c78c 793e
00000150: 6107 383e 1b2a fc3d eb8f 1c3e 1c3d 863e
00000160: 0dc1 b2bd 94b7 c23d 87d3 583e abc5 98be
00000170: 6fed d7bc 2734 b2bd b35c 6f3c eee9 6c3d
00000180: 1562 423e 54a4 02bd 956e 6abe f8bb e8bd
00000190: 9fcc 663e 4d9d 97bd 1b6d 00be b5f1 163e
000001a0: f99c 8c3d bf8c 2b3d d4ad 8c3d dcaa fc3e
000001b0: fdba 553e 84b3 d9bc e495 45be 75c5 e73c
000001c0: 1cfa b13d 2a6f 3ebe 7437 ad3d f0f3 38be
000001d0: d7ec 073d 2852 fe3e 1e10 5c3d af17 b93e
000001e0: 6525 2fbe 4940 473e f716 203d c7cc d3bd
000001f0: 2d21 cc3d e0d6 a03c 9d7b aabe 4d2c a53d

fc3.bias f4 [4]
0.24524708 0.120441504 0.013992065 0.17085633
00000000: 0d22 7b3e 09aa f63d f93e 653c f6f4 2e3e
