checkpoint-cpu.pth (torch_old, 10600 bytes, 6 tensors)

fc1.weight f4 [32, 37]
0	0xbe0ed4c2	-0.13948348
1	0xbae0d509	-0.0017153333
2	0x3c8bfbca	0.017087836
3	0xbe1153f7	-0.14192186
4	0x3eebc913	0.46051845
5	0x3e97dc02	0.2966004
6	0xbe05baf3	-0.13059597
7	0x3cd39343	0.025827056
8	0xbf4329ed	-0.7623585
9	0xbfaab6f9	-1.3337089
10	0xbd9f1610	-0.0776788
11	0xbccf52a5	-0.025307963
12	0xbcc729c6	-0.024311911
13	0xbde4663a	-0.11152311
14	0x3e11fe3d	0.1425714
15	0xbd5c2ff1	-0.053756658
16	0x3daf07fe	0.08546446
17	0x3d036b48	0.032084733
18	0x3e1170b2	0.14203146
19	0x3c212be0	0.009837121
20	0xbc99cb3d	-0.01877367
21	0x3e3d239c	0.18470615
22	0x3dd7bb26	0.105337426
23	0x3dbbbf0d	0.091672994
24	0x3dbf01fc	0.0932655
25	0xbd65527e	-0.055986874
26	0x3df45a6f	0.11931311
27	0xbd8309a8	-0.06398326
28	0x3d10362f	0.035207924
29	0x3cadd053	0.0212175
30	0xbdbef68e	-0.0932437
31	0x3d8e0d38	0.06936115
32	0x3d14df0a	0.03634552
33	0x3e1407e1	0.1445613
34	0x3acce56e	0.001563234
35	0x3c320501	0.010865451
36	0xbb960308	-0.004577998
37	0x3eb227f9	0.34796122
38	0x3e3df758	0.18551385
39	0x3e0e7450	0.13911557
40	0x3c4fe73d	0.012689409
41	0xbf30f03f	-0.69116586
42	0x3ea5236d	0.3225359
43	0xbd3d6dbc	-0.04624723
44	0xbdb7662c	-0.089550346
45	0xbdd82b80	-0.10555172
46	0xbeab8d92	-0.33506447
47	0x3dd3c045	0.10339407
48	0x3dd54c07	0.10414892
49	0x3e1ffb7e	0.1562328
50	0x3e6ef03c	0.2333383
51	0x3dcd5180	0.100253105
52	0x3e82bef9	0.25536326
53	0x3e3e2967	0.18570481
54	0x3db75779	0.08952231
55	0x3d97b564	0.074076444
56	0xbe95243b	-0.29129204
57	0x3d2842f9	0.041079495
58	0xbc92334d	-0.017846728
59	0x3d445d26	0.047940396
60	0x3df2955c	0.11844894
61	0x3ded54d1	0.11588443
62	0x3e549ad3	0.20762186
63	0x3d3d819e	0.04626619
64	0x3dbee403	0.093208335
65	0x3de25597	0.11051481
66	0x3dc5869b	0.096448146
67	0x3e8457d9	0.25848272
68	0x3e906dde	0.28208822
69	0x3e423dbe	0.18968865
70	0x3e21fcd6	0.15819106
71	0xbd4c207f	-0.04983568
72	0xbd58c4a1	-0.052921895
73	0x3c26e5c5	0.010186617
74	0x3dc6536b	0.096838795
75	0x3e8e8679	0.2783697
76	0x3d30ee1a	0.04319582
77	0xbe21a563	-0.15785746
78	0xbf1f7dcd	-0.6230133
79	0xbe8ba2eb	-0.27272734
80	0x3cba1bd2	0.022718344
81	0x3e46e048	0.19421494
82	0x3e80c7b8	0.25152373
83	0x3e3a469b	0.18190996
84	0xbdd0d708	-0.10197264
85	0x3cbabd0a	0.022795219
86	0x3e0842cd	0.13306732
87	0xbc65bdab	-0.014022271
88	0x3dbe4c01	0.0929184
89	0x3b2509e2	0.0025182893
90	0xbd859bcc	-0.065238565
91	0x3d2ce02c	0.042205974
92	0x3e92da77	0.286823
93	0x3e52a495	0.20570596
94	0xbdcc50dc	-0.0997636
95	0x3c9059a3	0.017620867
96	0x3cb5629b	0.022141745
97	0xbc80bc2f	-0.015714733
98	0x3e0dc670	0.13845229
99	0xbb3660da	-0.0027828724
100	0x3d93b406	0.07212071
101	0x3e443747	0.19161712
102	0xbdbe5e76	-0.09295361
103	0xbe1b4936	-0.15164647
104	0xbe7e6b3e	-0.24845597
105	0x3d2ad637	0.041708197
106	0xbd3c2352	-0.04593212
107	0xbd5800ea	-0.052735247
108	0xbd8450e7	-0.064607434
109	0x3db7e037	0.089783125
110	0xbb9a7c0f	-0.004714496
111	0x3e601b92	0.21885517
112	0xbd7730a6	-0.06034913
113	0x3dd8a543	0.10578396
114	0x3e3530f6	0.17694458
115	0x3f7daee8	0.9909501
116	0xbd0ffbcd	-0.035152245
117	0xbd8deba8	-0.069297135
118	0x3c938240	0.018006444
119	0x3e47395a	0.19455472
120	0x3e86b835	0.26312414
121	0x3c9642c7	0.018342389
122	0xbd288fa3	-0.041152608
123	0x3c8f19fa	0.017468441
124	0x3dbd6e07	0.09249502
125	0x3d9c41bd	0.07629726
126	0xbc6aab96	-0.014323136
127	0x3c47f795	0.012205024
128	0xbd88e4d2	-0.06684269
129	0xbe09c353	-0.13453417
130	0xbebd7460	-0.3700285
131	0xbb31b674	-0.0027116807
132	0x3d42f50c	0.047596976
133	0x3ca8fb77	0.02062772
134	0x3c8c6d4e	0.017141964
135	0x3d1863ea	0.03720466
136	0x3d9e17bf	0.07719373
137	0xbd4e3789	-0.05034593
138	0x3ce02e75	0.027365902
139	0xbcf29e0b	-0.029616376
140	0xbe29cbad	-0.16581602
141	0x3daf3046	0.08554129
142	0x3e32fce7	0.17479287
143	0xbcba0274	-0.022706248
144	0xbe1dbbfb	-0.1540374
145	0xbeb8ee08	-0.36119103
146	0x3c09a274	0.008400548
147	0xbbf2f83b	-0.0074148453
148	0xbe6032bf	-0.21894358
149	0xbe67fcd9	-0.22655047
150	0xbe2d1915	-0.169041
151	0xbd812e3b	-0.06307646
152	0x3e6759b7	0.22592817
153	0xbf46b4eb	-0.7761981
154	0xbe2c08da	-0.16800252
155	0x3e04b2f8	0.12958896
156	0xbe4e6e39	-0.20159234
157	0xbf23d500	-0.6399689
158	0xbe1e5295	-0.1546119
159	0xbbf762ba	-0.007549611
160	0xbe573e51	-0.21019866
161	0xbcc30808	-0.02380754
162	0xbe2a4e7b	-0.166315
163	0xbdddb6ec	-0.10825905
164	0xbdcf2d1e	-0.10116027
165	0xbdb2da76	-0.08733074
166	0xbe12d6b8	-0.14339721
167	0xbe0e5834	-0.13900834
168	0xbdbc9ba3	-0.09209373
169	0xbe2af471	-0.1669481
170	0x3d1e38f2	0.038628526
171	0x3ca1b31f	0.019738732
172	0x3d60e543	0.05490614
173	0xbec09903	-0.3761674
174	0xbf0d5e24	-0.5522177
175	0x3e8b0f4f	0.27160117
176	0xbea1d679	-0.31608942
177	0xbf08d605	-0.5345157
178	0xbc0c8d84	-0.008578662
179	0x3d93ba3a	0.07213254
180	0xbdddb8c5	-0.108262576
181	0xbdd341fb	-0.10315319
182	0x3e1ce484	0.15321547
183	0x3b0091d6	0.0019618175
184	0x3d6b4ba3	0.05744518
185	0x3e262c2c	0.16227788
186	0x3e00804e	0.12548944
187	0xbe05819c	-0.13037723
188	0xbdbaaa09	-0.09114463
189	0xbf98ba48	-1.1931849
190	0x3d1e794e	0.038689904
191	0xbcca686e	-0.024708
192	0x3e0c75cc	0.13716811
193	0x3f05b1b8	0.522243
194	0x3f41f9f2	0.7577201
195	0xbd4fd0df	-0.050736304
196	0xbdcc6dd4	-0.099818856
197	0x3d1ca3c1	0.038242105
198	0x3e070118	0.13184011
199	0x3eb3c85a	0.35113794
200	0xbdc616ba	-0.096723035
201	0x3df0a2da	0.117498115
202	0x3db38ab5	0.08766691
203	0x3a8f428b	0.0010929866
204	0xbdaba38f	-0.08380806
205	0x3e2d36ef	0.16915487
206	0x3dd1de12	0.10247435
207	0x3e08af4a	0.13348117
208	0x3d89893e	0.0671563
209	0xbdddbcb1	-0.10827006
210	0x39a59608	0.00031583034
211	0x3db2c85e	0.08729623
212	0xbb7d70da	-0.0038672
213	0xbc637e84	-0.013885144
214	0xbe60b142	-0.21942618
215	0x3e070bce	0.13188097
216	0x3dcab5b8	0.09897941
217	0xbe3770e2	-0.17914155
218	0xbe8afa5d	-0.27144137
219	0xbf1039e6	-0.56338346
220	0x3b0484e0	0.0020220801
221	0x3b9626a5	0.0045822435
222	0xbde2e78d	-0.11079321
223	0x3dcd54b6	0.10025923
224	0x3a109209	0.0005514925
225	0xbc909d1d	-0.017653042
226	0xbd4a6ccc	-0.049420163
227	0xbd1b8c68	-0.0379757
228	0x3dcfe46e	0.101509914
229	0xbe46b7de	-0.19406077
230	0xbdbae4b4	-0.09125653
231	0xbd531803	-0.05153657
232	0x3db8be16	0.09020631
233	0x3e1ed769	0.1551186
234	0x3d65bb79	0.05608699
235	0x3e19f21c	0.15033764
236	0x3e16a8e8	0.1471287
237	0xbd8ecdbc	-0.069728345
238	0xbd7f1326	-0.06227412
239	0x3d8f8429	0.070076294
240	0xbdc1a78a	-0.09455784
241	0x3da1211d	0.07867644
242	0xbd9db1f4	-0.076999575
243	0xbcd01885	-0.025402317
244	0x3c1ebecf	0.009689047
245	0x3dafec81	0.085900314
246	0x3d9ca5b6	0.07648794
247	0xbf03d1f7	-0.51492256
248	0x3dc34dd6	0.095363304
249	0x3d431590	0.047627985
250	0x3bb26b86	0.0054449467
251	0xbdcf0bb6	-0.101096556
252	0x3e633728	0.22189009
253	0xbf1c91e2	-0.611601
254	0xbe8336a5	-0.25627628
255	0xbef31d19	-0.47483137

fc1.bias f4 [32]
0	0xbe053262	-0.13007501
1	0x3db929ec	0.09041199
2	0xbbe30e40	-0.006929189
3	0x3e2305fb	0.1592025
4	0x3d67704f	0.05650359
5	0xbd5cf862	-0.053947814
6	0xbd625ab4	-0.055262282
7	0x3e342846	0.17593488
8	0x3d8434aa	0.064553574
9	0x3e955677	0.2916753
10	0xbc9c6e5d	-0.019095594
11	0xbdc3d7c3	-0.09562638
12	0x3e6f2829	0.23355164
13	0xbe06d2e3	-0.13166384
14	0x3d9f9627	0.07792311
15	0x3c656b89	0.014002689
16	0x3e30c7ca	0.17263713
17	0x3d555862	0.05208624
18	0x3d67bd1e	0.05657684
19	0xbdcb61ed	-0.09930787
20	0xbd65fd09	-0.056149516
21	0xbd84f327	-0.0649169
22	0xbd3c6eac	-0.046003982
23	0x3da7d702	0.08195306
24	0x3d2ca625	0.042150635
25	0xbe0d4697	-0.13796459
26	0xbcf9e521	-0.030504765
27	0x3d465d72	0.04842896
28	0x3ea1455c	0.3149823
29	0x3cae3b6a	0.021268565
30	0x3d2532cb	0.040331643
31	0xbe00ccb0	-0.12578082

fc2.weight f4 [32, 32]
0	0xbdc3dd64	-0.09563711
1	0x3dd032a5	0.1016591
2	0xbe15ba48	-0.14621842
3	0x3e39d67d	0.18148227
4	0x3cef9d14	0.029249705
5	0x3d98044d	0.07422695
6	0xbebdc9a9	-0.37067917
7	0xbe5ea680	-0.21743202
8	0xbe44ebd0	-0.1923058
9	0xbdbee9dc	-0.09321949
10	0x3d90866a	0.070568874
11	0x3f11a44e	0.56891334
12	0x3d05e89e	0.032692544
13	0xbf47a261	-0.77982146
14	0x3db74f87	0.089507155
15	0x3f01e589	0.5074087
16	0x3d725dd4	0.059171513
17	0x3d8ec2f0	0.06970775
18	0xbdd1b41e	-0.10239433
19	0xbd86183b	-0.0654759
20	0xbeea34cc	-0.45743406
21	0xbd423b23	-0.04741968
22	0xbd0c7ce5	-0.034298796
23	0x3e81834d	0.25295487
24	0xbdc9ab2d	-0.09847102
25	0x3d87ebe2	0.06636788
26	0xbedde8a7	-0.43341562
27	0xbf58e8df	-0.84730333
28	0xbe24daea	-0.16099134
29	0xbecc70e2	-0.39929873
30	0xbd578b4b	-0.052623075
31	0x3e2e523f	0.17023562
32	0x3e84b5c1	0.25919917
33	0xbb9f9ebd	-0.004871218
34	0xbdd15183	-0.10220625
35	0xbd989c22	-0.07451655
36	0x3c8ef860	0.017452419
37	0xbdbc0dc7	-0.09182315
38	0x3e42efd7	0.19036804
39	0xbe1e6394	-0.15467674
40	0x3d9c7a40	0.07640505
41	0xbdd14194	-0.10217586
42	0x3e3af7f9	0.18258657
43	0x3e9f51a3	0.3111697
44	0x3d958dcb	0.073024355
45	0x3ecd7549	0.40128544
46	0xbd193e1c	-0.037412748
47	0xbcbc73c1	-0.023004415
48	0xbd8dfed4	-0.0693337
49	0x3da395e1	0.079875715
50	0xbd964848	-0.07338005
51	0xbd502e88	-0.050825626
52	0x3e9b6fdd	0.30358782
53	0xbd5a0668	-0.053228766
54	0x3c852342	0.016252164
55	0x3ea710aa	0.326299
56	0xbd86b1a4	-0.06576851
57	0xbe4c97f9	-0.19979848
58	0x3dd9a081	0.10626317
59	0xbf5d47fb	-0.8643796
60	0x3ddfe0af	0.10931527
61	0x3e889e57	0.26683304
62	0x3a68da12	0.00088825927
63	0x3e169c1d	0.1470799
64	0x3dc5042a	0.09619935
65	0xbd23d384	-0.03999664
66	0x389bc08c	7.4268406e-05
67	0x3e720ff0	0.23638892
68	0x3e7a1f30	0.2442596
69	0xbea375fc	-0.31925952
70	0xbe8d3158	-0.2757671
71	0x3e9cfabb	0.30660042
72	0xbe5d083e	-0.21585175
73	0x3b1afec4	0.0023650387
74	0x3e0a1275	0.13483603
75	0x3c9b3eed	0.018950904
76	0x3d96fa44	0.07371953
77	0xbecb0ce6	-0.39658278
78	0x3e24b9a7	0.16086446
79	0xbe9e8f8d	-0.30968896
80	0x3e09dea6	0.1346384
81	0x3d0f9101	0.035050396
82	0xbe209cb9	-0.15684785
83	0xbe635ce1	-0.22203399
84	0x3caaf798	0.020870015
85	0xbe0e6773	-0.1390665
86	0x3f2073ca	0.6267668
87	0xbd5432e6	-0.051806353
88	0xbeaa57a1	-0.3326998
89	0x3cb9c58b	0.022677204
90	0xbefdf6aa	-0.49602252
91	0xbf4d9de5	-0.8031905
92	0xbda3e7d9	-0.08003206
93	0xbf1f25d9	-0.62167126
94	0x3f43c544	0.7647288
95	0xbd923f2e	-0.07140957
96	0xbe6a13a0	-0.22859049
97	0xbe090a0e	-0.13382742
98	0x3e4c93a7	0.199782
99	0x3e4f64d5	0.20253308
100	0x3e5c64f9	0.21522893
101	0xbdaf173c	-0.085493535
102	0x3f2e380b	0.68054265
103	0x3d9feb74	0.07808581
104	0xbde7db1c	-0.11321089
105	0x3e2171fd	0.1576614
106	0x3df122a1	0.11774183
107	0x3e3b7d3e	0.18309495
108	0x3c8f1502	0.017466072
109	0x3f052007	0.52001995
110	0xbdaef331	-0.08542479
111	0x3d6af057	0.057358112
112	0x3d604b67	0.05475941
113	0xbd60dbff	-0.054897305
114	0xbd69cfca	-0.05708293
115	0xbe091c83	-0.13389783
116	0xbf2e3eff	-0.68064874
117	0x3f020b66	0.5079864
118	0xbf62c8a8	-0.8858743
119	0x3d3f3069	0.046677027
120	0xbef5f422	-0.4803782
121	0x3dde08f3	0.10841551
122	0x3ec86c4e	0.3914513
123	0x3e82c2a1	0.25539115
124	0xbd6a0d01	-0.057141308
125	0x3e7aa87c	0.24478334
126	0xbf4308d3	-0.7618534
127	0x3dc504ca	0.09620054
128	0xbe9d4deb	-0.3072351
129	0x3d8f8f85	0.07009796
130	0x3e6749f1	0.225868
131	0xbd0dc653	-0.034612965
132	0xbcc3c380	-0.023896933
133	0x3dc861c3	0.097842716
134	0x3e64da01	0.22348787
135	0x3e3c9fee	0.18420383
136	0x3e23f5cd	0.16011734
137	0x3e91847f	0.284214
138	0x3da9e191	0.082949765
139	0x3d515e87	0.05111554
140	0xbe1ec0ee	-0.15503284
141	0x3e88df78	0.26732993
142	0xbde3f491	-0.11130632
143	0xbe0b19d4	-0.13584071
144	0x3df21f5c	0.118223876
145	0x3e3d8a21	0.18509723
146	0x3a851bd6	0.001015539
147	0x3d90fb96	0.07079236
148	0xbec7a5ae	-0.3899359
149	0xbd41dafe	-0.047327988
150	0x3d3b9d92	0.045804568
151	0xbe098063	-0.13427882
152	0xbf2bef02	-0.6716157
153	0x3e2f42c6	0.17115316
154	0xbe2f8549	-0.17140688
155	0x3f05500c	0.52075267
156	0xbdc1a301	-0.09454919
157	0xbcedee68	-0.029044345
158	0xbb011f2b	-0.0019702415
159	0x3d5f15ad	0.05446403
160	0xbe4505c7	-0.19240485
161	0xbd59aae9	-0.05314151
162	0x3d8b726d	0.06808934
163	0x3e1f6221	0.15564777
164	0x3e63eb53	0.22257738
165	0x3c045f4e	0.008079363
166	0xbe8df9a9	-0.27729538
167	0xbe040ac2	-0.12894729
168	0xbf310419	-0.6914688
169	0x3e261c5e	0.16221759
170	0x3cb6ddff	0.022322653
171	0xbea7159c	-0.32633674
172	0x3e815d05	0.2526628
173	0xbee06b29	-0.43831757
174	0xbd024569	-0.031804476
175	0xbebcb142	-0.36853987
176	0xbc17c6ff	-0.009263753
177	0x3da415a3	0.080119394
178	0x3e096c2d	0.13420172
179	0xbbf4c9dd	-0.007470353
180	0x3ea92ded	0.3304285
181	0xbd9c19e3	-0.07622125
182	0x3e8b36a7	0.27190134
183	0xbe3cbe84	-0.18432051
184	0xbf89f966	-1.0779235
185	0xbbc2d0cc	-0.0059453007
186	0xbf586aa7	-0.8453774
187	0xbf2adc8f	-0.66742796
188	0x3c96d4d4	0.018412031
189	0xbf28d24e	-0.659459
190	0x3ef1caaf	0.47224948
191	0xbe99057d	-0.29887
192	0x3ddae7b8	0.10688728
193	0xbe3a6f10	-0.1820643
194	0xbe707cdd	-0.23485132
195	0xbd860c3f	-0.065453045
196	0x3d8c2b0e	0.068441495
197	0x3ebb7afe	0.36617273
198	0x3e2415cf	0.16023944
199	0xbd9193b7	-0.071082525
200	0x3ee6fdb7	0.45115444
201	0xbe28e614	-0.16494018
202	0x3d28de44	0.041227594
203	0x3ed47d80	0.41502
204	0x3d1107c0	0.03540778
205	0x3ea4f3e4	0.32217324
206	0xbe761f20	-0.24035311
207	0x3ca2518b	0.019814273
208	0xbd63792a	-0.055535473
209	0x3e888ca8	0.26669812
210	0x3dc7b77a	0.09751792
211	0x3ded071c	0.11573622
212	0xbdb72d01	-0.08944131
213	0xbe10440f	-0.14088462
214	0xbe85cd9d	-0.26133433
215	0x3d0cc276	0.03436514
216	0x3d58a978	0.052895993
217	0xbe39029e	-0.18067405
218	0x3f0fea34	0.5621674
219	0x3de669d2	0.112506524
220	0xbcfe9721	-0.031077923
221	0x3da5e4cf	0.081002824
222	0x3e8fe628	0.28105283
223	0x3eb2307c	0.34802616
224	0x3dbaff9e	0.09130786
225	0x3dccebfc	0.10005948
226	0x3d8a28d5	0.06746069
227	0xbc61bfb7	-0.013778619
228	0x3bd4b277	0.006491001
229	0x3dd0d75b	0.10197326
230	0xbd860d2b	-0.0654548
231	0x3e22588c	0.1585409
232	0x3e83f98d	0.2577633
233	0x3d06edf0	0.03294176
234	0x3e653390	0.22382951
235	0x3dddae74	0.1082429
236	0x3e2b296f	0.16715024
237	0x3d874a35	0.06605951
238	0x3b1c7f63	0.002387964
239	0xbe8fbb29	-0.2807248
240	0xbcf459a8	-0.029827908
241	0x3d1ae5fb	0.037816983
242	0x3d0efae9	0.034907255
243	0x3d90ff75	0.070799746
244	0xbc096cce	-0.008387757
245	0xbd909267	-0.07059174
246	0xbe5ab1ee	-0.21356937
247	0xbe41d0d3	-0.18927316
248	0x3d5c9ca0	0.053860307
249	0xbe24a076	-0.16076836
250	0x3e7f575f	0.24935673
251	0x3edf34dd	0.4359502
252	0x3eb382dc	0.35060775
253	0x3d799212	0.06093032
254	0xbc29fb5f	-0.010374873
255	0x3de2702d	0.11056552

fc2.bias f4 [32]
0	0xbc6ac939	-0.014330202
1	0xbd8448d2	-0.06459202
2	0xbe0d767e	-0.13814732
3	0xbda5655d	-0.08075974
4	0x3e84fa7f	0.25972363
5	0x3c07d8b3	0.008291411
6	0xbe4f4bcc	-0.20243758
7	0x3ed6813b	0.4189547
8	0x3e87236e	0.26394218
9	0xbd5a44ab	-0.053288143
10	0x3e181ce0	0.14854765
11	0x3e8523ed	0.26003972
12	0x3f1a7f05	0.60350066
13	0x3e14e91e	0.14542052
14	0xbd92c977	-0.071673326
15	0x3e310367	0.17286454
16	0x3e4d4e33	0.20049362
17	0x3e607fc0	0.21923733
18	0x3e5794ff	0.21052931
19	0x3e036e26	0.12834987
20	0x3e4064d5	0.18788464
21	0x3de2c378	0.11072439
22	0x3f172e55	0.5905507
23	0x3dccb7a6	0.09995966
24	0x3be0a743	0.0068558767
25	0xbd0106c3	-0.03150059
26	0x3eb61f96	0.35570973
27	0xbd9499de	-0.0725591
28	0x3d0b1a8e	0.03396087
29	0xbe17fb98	-0.14842069
30	0x3e81d089	0.25354412
31	0x3ec3205f	0.38110635

fc3.weight f4 [4, 32]
0	0x3f0bdef2	0.5463706
1	0x3d6694b4	0.056294158
2	0xbe76d37c	-0.24104112
3	0x3ea18fa4	0.31554902
4	0x3de2bccc	0.110711664
5	0xbef18a4b	-0.47175822
6	0xbe65f1ac	-0.22455472
7	0x3e413b91	0.18870379
8	0x3e72da83	0.23716168
9	0x3ef24ade	0.47322744
10	0xbdfe7f6e	-0.12426649
11	0x3e96b7f4	0.2943722
12	0x3e83d599	0.257489
13	0xbe9ec352	-0.31008393
14	0xbe23e434	-0.16005021
15	0x3ebd5e2d	0.36985913
16	0x3e985fe7	0.29760668
17	0x3ec3f8ec	0.3827585
18	0x3ddf0162	0.108889356
19	0x3e374eef	0.17901205
20	0x3e37ec9c	0.17961353
21	0x3e23b2d6	0.15986189
22	0x3e685ac9	0.22690882
23	0xbe2ef9cf	-0.17087482
24	0xbea2fd50	-0.31833887
25	0x3d9deccf	0.07711183
26	0x3e489918	0.1958965
27	0xbe215617	-0.15755497
28	0x3ecfa773	0.4055744
29	0xbe339243	-0.17536263
30	0x3eace3bc	0.33767498
31	0x3e7a64c9	0.24452509
32	0x3f120601	0.5704041
33	0x3d4b10d0	0.04957658
34	0x3d65e475	0.056126077
35	0x3e398b3e	0.18119523
36	0x3e2fee1e	0.17180678
37	0xbea9e353	-0.33181247
38	0xbe54f0d7	-0.20794998
39	0x3e8c705e	0.2742948
40	0x3df5a983	0.119952224
41	0x3f0eccc5	0.55781204
42	0x3d1839b0	0.03716439
43	0x3e916c4f	0.28402945
44	0x3e5f0735	0.21780093
45	0xbe101941	-0.14072134
46	0xbe509ecb	-0.20373075
47	0x3ebe2b07	0.37142202
48	0x3e95a190	0.29224825
49	0x3ef2c5a7	0.47416422
50	0x3e86c8f7	0.263252
51	0x3e4866c0	0.19570446
52	0x3db19a0e	0.08671962
53	0x3e83fa6c	0.25776994
54	0x3e591a89	0.21201529
55	0x3e8a02df	0.26955315
56	0xbe7ff517	-0.24995838
57	0x3e0e4fd0	0.13897634
58	0x3e429bb5	0.1900471
59	0xbe8778bd	-0.26459303
60	0x3f00a2b1	0.5024825
61	0xbe7e4ef8	-0.24834812
62	0x3f020946	0.507954
63	0x3e942afe	0.2893905
64	0x3c81a3e9	0.015825229
65	0x3e8cf2e1	0.27529052
66	0xbe9ba2a0	-0.3039751
67	0xbe04ad87	-0.1295682
68	0x3e612b6f	0.21989225
69	0xbd873a59	-0.06602926
70	0xbea4eec7	-0.32213423
71	0x3ea3a3dd	0.31960955
72	0x3db7caa0	0.089741945
73	0x3ed4ca61	0.41560653
74	0x3e42bd77	0.19017588
75	0x3e098afa	0.13431922
76	0x3ea088d8	0.31354403
77	0x3db84c19	0.089988895
78	0xbe17f10b	-0.14838044
79	0x3eeeb382	0.4662133
80	0x3ef271c1	0.47352412
81	0x3e8e30ee	0.27771705
82	0x3dca4a93	0.09877505
83	0x3d0ca3cf	0.034335908
84	0x3da6d5d6	0.08146255
85	0x3e89b240	0.26893806
86	0x3e6ce0d8	0.23132646
87	0x3f2398b7	0.639049
88	0xbe0741eb	-0.1320874
89	0x3d51b390	0.051196635
90	0x3ea9eb71	0.3318744
91	0xbe1a3f67	-0.15063249
92	0x3cb784b3	0.022402143
93	0xbf0059f6	-0.5013727
94	0x3f340388	0.7031789
95	0x3e00201d	0.1251225
96	0x3f415384	0.7551806
97	0x3e548bbb	0.20756428
98	0xba89edd6	-0.0010523151
99	0xbe1a38a7	-0.15060674
100	0x3ea5e193	0.32398662
101	0xbd0daea2	-0.03459037
102	0xbe747452	-0.23872498
103	0x3e7cc812	0.24685696
104	0x3e5ed7f9	0.21762075
105	0x3da5a0ec	0.08087334
106	0x3e0068f5	0.12540038
107	0x3edb2df8	0.4280851
108	0x3ea289e8	0.3174584
109	0x3cec980b	0.028881093
110	0xbe9eecc7	-0.31040022
111	0x3ee08ada	0.43855935
112	0x3ebd017a	0.3691519
113	0x3f0d26ea	0.55137503
114	0x3df1c6a2	0.11805464
115	0xbebd02a8	-0.3691609
116	0x3de27bfd	0.11058805
117	0x3ef4bc63	0.47799978
118	0x3e3fe7c5	0.18740757
119	0xbeb1ceb6	-0.3472802
120	0xbed23fce	-0.41064304
121	0x3e95fb0d	0.292931
122	0x3d049df4	0.0323772
123	0xbe07c730	-0.13259578
124	0x3eff6694	0.49882948
125	0x3d2bf820	0.041984677
126	0x3eac2719	0.3362358
127	0x3d9b4c05	0.07582859

fc3.bias f4 [4]
0	0x3ef217ff	0.47283933
1	0x3e9fc126	0.31202048
2	0x3e06eede	0.13177058
3	0x3ec96395	0.39333788
